…
|    decode_head.linear_fuse.bn        |    0.512K              |    83.886M |
|   decode_head.linear_pred            |   5.14K                |   0.336G   |
|    decode_head.linear_pred.weight    |    (20, 256, 1, 1)     |            |
|    decode_head.linear_pred.bias      |    (20,)               |            |
20250220 10:45:37 - root - INFO: - ================== model structure =====================
20250220 10:45:37 - root - INFO: - DistributedDataParallel(
  (module): MutiModalTransformer(
    (backbone): MutiModalTransformer(
      (layers): ModuleList(
        (0): ModuleList(
          (0): PatchEmbed(
            (projection): Conv2d(3, 32, kernel_size=(7, 7), stride=(4, 4), padding=(3, 3))
            (norm): LayerNorm((32,), eps=1e-06, elementwise_affine=True)
          )
          (1): ModuleList(
            (0-1): 2 x EncoderLayer(
              (norm1): LayerNorm((32,), eps=1e-06, elementwise_affine=True)
              (attn): Attention(
                (attn): MultiheadAttention(
                  (out_proj): NonDynamicallyQuantizableLinear(in_features=32, out_features=32, bias=True)
                )
                (proj_drop): Dropout(p=0.0, inplace=False)
                (dropout_layer): DropPath()
                (sr): Conv2d(32, 32, kernel_size=(8, 8), stride=(8, 8))
                (norm): LayerNorm((32,), eps=1e-06, elementwise_affine=True)
              )
              (norm2): LayerNorm((32,), eps=1e-06, elementwise_affine=True)
              (ffn): MixFFN(
                (activate): GELU(approximate='none')
                (layers): Sequential(
                  (0): Conv2d(32, 128, kernel_size=(1, 1), stride=(1, 1))
                  (1): Conv2d(128, 128, kernel_size=(3, 3), stride=(1, 1), padding=(1, 1), groups=128)
                  (2): GELU(approximate='none')
                  (3): Dropout(p=0.0, inplace=False)
                  (4): Conv2d(128, 32, kernel_size=(1, 1), stride=(1, 1))
                  (5): Dropout(p=0.0, inplace=False)
                )
                (dropout_layer): DropPath()
              )
            )
          )
          (2): LayerNorm((32,), eps=1e-06, elementwise_affine=True)
          (3): FeatureFusion(
            (fpn): ModuleList(
              (0): Conv2d(32, 16, kernel_size=(1, 1), stride=(1, 1), bias=False)
              (1): Conv2d(16, 8, kernel_size=(3, 3), stride=(2, 2), padding=(1, 1), bias=False)
              (2): Conv2d(8, 4, kernel_size=(3, 3), stride=(2, 2), padding=(1, 1), bias=False)
            )
            (boundary_enhancer): Sequential(
              (0): Conv2d(32, 1, kernel_size=(3, 3), stride=(1, 1), padding=(1, 1))
              (1): Sigmoid()
            )
            (spatial_attention): Sequential(
              (0): Conv2d(32, 16, kernel_size=(1, 1), stride=(1, 1), bias=False)
              (1): ReLU()
              (2): Conv2d(16, 1, kernel_size=(3, 3), stride=(1, 1), padding=(1, 1))
              (3): Sigmoid()
            )
            (channel_attention): Sequential(
              (0): AdaptiveAvgPool2d(output_size=1)
              (1): AdaptiveMaxPool2d(output_size=1)
              (2): Conv2d(32, 16, kernel_size=(1, 1), stride=(1, 1), bias=False)
              (3): ReLU()
              (4): Conv2d(16, 32, kernel_size=(1, 1), stride=(1, 1))
              (5): Sigmoid()
            )
            (feature_fusion): Sequential(
              (0): Conv2d(32, 32, kernel_size=(1, 1), stride=(1, 1), bias=False)
              (1): BatchNorm2d(32, eps=1e-05, momentum=0.1, affine=True, track_running_stats=True)
              (2): ReLU()
            )
            (modality_selector): ModalitySelector(
              (scene_classifier): Sequential(
                (0): Conv2d(32, 16, kernel_size=(1, 1), stride=(1, 1), bias=False)
                (1): BatchNorm2d(16, eps=1e-05, momentum=0.1, affine=True, track_running_stats=True)
                (2): ReLU()
                (3): Conv2d(16, 8, kernel_size=(1, 1), stride=(1, 1))
                (4): AdaptiveAvgPool2d(output_size=1)
                (5): Flatten(start_dim=1, end_dim=-1)
                (6): Softmax(dim=-1)
              )
              (modal_similarity_conv): Sequential(
                (0): Conv2d(32, 16, kernel_size=(1, 1), stride=(1, 1), bias=False)
                (1): ReLU()
                (2): Conv2d(16, 1, kernel_size=(1, 1), stride=(1, 1))
                (3): AdaptiveAvgPool2d(output_size=1)
              )
              (modality_dropout): ModalityDropout()
            )
          )
        )
        (1): ModuleList(
          (0): PatchEmbed(
            (projection): Conv2d(32, 64, kernel_size=(3, 3), stride=(2, 2), padding=(1, 1))
            (norm): LayerNorm((64,), eps=1e-06, elementwise_affine=True)
          )
          (1): ModuleList(
            (0-1): 2 x EncoderLayer(
              (norm1): LayerNorm((64,), eps=1e-06, elementwise_affine=True)
              (attn): Attention(
                (attn): MultiheadAttention(
                  (out_proj): NonDynamicallyQuantizableLinear(in_features=64, out_features=64, bias=True)
                )
                (proj_drop): Dropout(p=0.0, inplace=False)
                (dropout_layer): DropPath()
                (sr): Conv2d(64, 64, kernel_size=(4, 4), stride=(4, 4))
                (norm): LayerNorm((64,), eps=1e-06, elementwise_affine=True)
              )
              (norm2): LayerNorm((64,), eps=1e-06, elementwise_affine=True)
              (ffn): MixFFN(
                (activate): GELU(approximate='none')
                (layers): Sequential(
                  (0): Conv2d(64, 256, kernel_size=(1, 1), stride=(1, 1))
                  (1): Conv2d(256, 256, kernel_size=(3, 3), stride=(1, 1), padding=(1, 1), groups=256)
                  (2): GELU(approximate='none')
                  (3): Dropout(p=0.0, inplace=False)
                  (4): Conv2d(256, 64, kernel_size=(1, 1), stride=(1, 1))
                  (5): Dropout(p=0.0, inplace=False)
                )
                (dropout_layer): DropPath()
              )
            )
          )
          (2): LayerNorm((64,), eps=1e-06, elementwise_affine=True)
          (3): FeatureFusion(
            (fpn): ModuleList(
              (0): Conv2d(64, 32, kernel_size=(1, 1), stride=(1, 1), bias=False)
              (1): Conv2d(32, 16, kernel_size=(3, 3), stride=(2, 2), padding=(1, 1), bias=False)
              (2): Conv2d(16, 8, kernel_size=(3, 3), stride=(2, 2), padding=(1, 1), bias=False)
            )
            (boundary_enhancer): Sequential(
              (0): Conv2d(64, 1, kernel_size=(3, 3), stride=(1, 1), padding=(1, 1))
              (1): Sigmoid()
            )
            (spatial_attention): Sequential(
              (0): Conv2d(64, 32, kernel_size=(1, 1), stride=(1, 1), bias=False)
              (1): ReLU()
              (2): Conv2d(32, 1, kernel_size=(3, 3), stride=(1, 1), padding=(1, 1))
              (3): Sigmoid()
            )
            (channel_attention): Sequential(
              (0): AdaptiveAvgPool2d(output_size=1)
              (1): AdaptiveMaxPool2d(output_size=1)
              (2): Conv2d(64, 32, kernel_size=(1, 1), stride=(1, 1), bias=False)
              (3): ReLU()
              (4): Conv2d(32, 64, kernel_size=(1, 1), stride=(1, 1))
              (5): Sigmoid()
            )
            (feature_fusion): Sequential(
              (0): Conv2d(64, 64, kernel_size=(1, 1), stride=(1, 1), bias=False)
              (1): BatchNorm2d(64, eps=1e-05, momentum=0.1, affine=True, track_running_stats=True)
              (2): ReLU()
            )
            (modality_selector): ModalitySelector(
              (scene_classifier): Sequential(
                (0): Conv2d(64, 32, kernel_size=(1, 1), stride=(1, 1), bias=False)
                (1): BatchNorm2d(32, eps=1e-05, momentum=0.1, affine=True, track_running_stats=True)
                (2): ReLU()
                (3): Conv2d(32, 8, kernel_size=(1, 1), stride=(1, 1))
                (4): AdaptiveAvgPool2d(output_size=1)
                (5): Flatten(start_dim=1, end_dim=-1)
                (6): Softmax(dim=-1)
              )
              (modal_similarity_conv): Sequential(
                (0): Conv2d(64, 32, kernel_size=(1, 1), stride=(1, 1), bias=False)
                (1): ReLU()
                (2): Conv2d(32, 1, kernel_size=(1, 1), stride=(1, 1))
                (3): AdaptiveAvgPool2d(output_size=1)
              )
              (modality_dropout): ModalityDropout()
            )
          )
        )
        (2): ModuleList(
          (0): PatchEmbed(
            (projection): Conv2d(64, 160, kernel_size=(3, 3), stride=(2, 2), padding=(1, 1))
            (norm): LayerNorm((160,), eps=1e-06, elementwise_affine=True)
          )
          (1): ModuleList(
            (0-1): 2 x EncoderLayer(
              (norm1): LayerNorm((160,), eps=1e-06, elementwise_affine=True)
              (attn): Attention(
                (attn): MultiheadAttention(
                  (out_proj): NonDynamicallyQuantizableLinear(in_features=160, out_features=160, bias=True)
                )
                (proj_drop): Dropout(p=0.0, inplace=False)
                (dropout_layer): DropPath()
                (sr): Conv2d(160, 160, kernel_size=(2, 2), stride=(2, 2))
                (norm): LayerNorm((160,), eps=1e-06, elementwise_affine=True)
              )
              (norm2): LayerNorm((160,), eps=1e-06, elementwise_affine=True)
              (ffn): MixFFN(
                (activate): GELU(approximate='none')
                (layers): Sequential(
                  (0): Conv2d(160, 640, kernel_size=(1, 1), stride=(1, 1))
                  (1): Conv2d(640, 640, kernel_size=(3, 3), stride=(1, 1), padding=(1, 1), groups=640)
                  (2): GELU(approximate='none')
                  (3): Dropout(p=0.0, inplace=False)
                  (4): Conv2d(640, 160, kernel_size=(1, 1), stride=(1, 1))
                  (5): Dropout(p=0.0, inplace=False)
                )
                (dropout_layer): DropPath()
              )
            )
          )
          (2): LayerNorm((160,), eps=1e-06, elementwise_affine=True)
          (3): FeatureFusion(
            (fpn): ModuleList(
              (0): Conv2d(160, 80, kernel_size=(1, 1), stride=(1, 1), bias=False)
              (1): Conv2d(80, 40, kernel_size=(3, 3), stride=(2, 2), padding=(1, 1), bias=False)
              (2): Conv2d(40, 20, kernel_size=(3, 3), stride=(2, 2), padding=(1, 1), bias=False)
            )
            (boundary_enhancer): Sequential(
              (0): Conv2d(160, 1, kernel_size=(3, 3), stride=(1, 1), padding=(1, 1))
              (1): Sigmoid()
            )
            (spatial_attention): Sequential(
              (0): Conv2d(160, 80, kernel_size=(1, 1), stride=(1, 1), bias=False)
              (1): ReLU()
              (2): Conv2d(80, 1, kernel_size=(3, 3), stride=(1, 1), padding=(1, 1))
              (3): Sigmoid()
            )
            (channel_attention): Sequential(
              (0): AdaptiveAvgPool2d(output_size=1)
              (1): AdaptiveMaxPool2d(output_size=1)
              (2): Conv2d(160, 80, kernel_size=(1, 1), stride=(1, 1), bias=False)
              (3): ReLU()
              (4): Conv2d(80, 160, kernel_size=(1, 1), stride=(1, 1))
              (5): Sigmoid()
            )
            (feature_fusion): Sequential(
              (0): Conv2d(160, 160, kernel_size=(1, 1), stride=(1, 1), bias=False)
              (1): BatchNorm2d(160, eps=1e-05, momentum=0.1, affine=True, track_running_stats=True)
              (2): ReLU()
            )
            (modality_selector): ModalitySelector(
              (scene_classifier): Sequential(
                (0): Conv2d(160, 80, kernel_size=(1, 1), stride=(1, 1), bias=False)
                (1): BatchNorm2d(80, eps=1e-05, momentum=0.1, affine=True, track_running_stats=True)
                (2): ReLU()
                (3): Conv2d(80, 8, kernel_size=(1, 1), stride=(1, 1))
                (4): AdaptiveAvgPool2d(output_size=1)
                (5): Flatten(start_dim=1, end_dim=-1)
                (6): Softmax(dim=-1)
              )
              (modal_similarity_conv): Sequential(
                (0): Conv2d(160, 80, kernel_size=(1, 1), stride=(1, 1), bias=False)
                (1): ReLU()
                (2): Conv2d(80, 1, kernel_size=(1, 1), stride=(1, 1))
                (3): AdaptiveAvgPool2d(output_size=1)
              )
              (modality_dropout): ModalityDropout()
            )
          )
        )
        (3): ModuleList(
          (0): PatchEmbed(
            (projection): Conv2d(160, 256, kernel_size=(3, 3), stride=(2, 2), padding=(1, 1))
            (norm): LayerNorm((256,), eps=1e-06, elementwise_affine=True)
          )
          (1): ModuleList(
            (0-1): 2 x EncoderLayer(
              (norm1): LayerNorm((256,), eps=1e-06, elementwise_affine=True)
              (attn): Attention(
                (attn): MultiheadAttention(
                  (out_proj): NonDynamicallyQuantizableLinear(in_features=256, out_features=256, bias=True)
                )
                (proj_drop): Dropout(p=0.0, inplace=False)
                (dropout_layer): DropPath()
              )
              (norm2): LayerNorm((256,), eps=1e-06, elementwise_affine=True)
              (ffn): MixFFN(
                (activate): GELU(approximate='none')
                (layers): Sequential(
                  (0): Conv2d(256, 1024, kernel_size=(1, 1), stride=(1, 1))
                  (1): Conv2d(1024, 1024, kernel_size=(3, 3), stride=(1, 1), padding=(1, 1), groups=1024)
                  (2): GELU(approximate='none')
                  (3): Dropout(p=0.0, inplace=False)
                  (4): Conv2d(1024, 256, kernel_size=(1, 1), stride=(1, 1))
                  (5): Dropout(p=0.0, inplace=False)
                )
                (dropout_layer): DropPath()
              )
            )
          )
          (2): LayerNorm((256,), eps=1e-06, elementwise_affine=True)
          (3): FeatureFusion(
            (fpn): ModuleList(
              (0): Conv2d(256, 128, kernel_size=(1, 1), stride=(1, 1), bias=False)
              (1): Conv2d(128, 64, kernel_size=(3, 3), stride=(2, 2), padding=(1, 1), bias=False)
              (2): Conv2d(64, 32, kernel_size=(3, 3), stride=(2, 2), padding=(1, 1), bias=False)
            )
            (boundary_enhancer): Sequential(
              (0): Conv2d(256, 1, kernel_size=(3, 3), stride=(1, 1), padding=(1, 1))
              (1): Sigmoid()
            )
            (spatial_attention): Sequential(
              (0): Conv2d(256, 128, kernel_size=(1, 1), stride=(1, 1), bias=False)
              (1): ReLU()
              (2): Conv2d(128, 1, kernel_size=(3, 3), stride=(1, 1), padding=(1, 1))
              (3): Sigmoid()
            )
            (channel_attention): Sequential(
              (0): AdaptiveAvgPool2d(output_size=1)
              (1): AdaptiveMaxPool2d(output_size=1)
              (2): Conv2d(256, 128, kernel_size=(1, 1), stride=(1, 1), bias=False)
              (3): ReLU()
              (4): Conv2d(128, 256, kernel_size=(1, 1), stride=(1, 1))
              (5): Sigmoid()
            )
            (feature_fusion): Sequential(
              (0): Conv2d(256, 256, kernel_size=(1, 1), stride=(1, 1), bias=False)
              (1): BatchNorm2d(256, eps=1e-05, momentum=0.1, affine=True, track_running_stats=True)
              (2): ReLU()
            )
            (modality_selector): ModalitySelector(
              (scene_classifier): Sequential(
                (0): Conv2d(256, 128, kernel_size=(1, 1), stride=(1, 1), bias=False)
                (1): BatchNorm2d(128, eps=1e-05, momentum=0.1, affine=True, track_running_stats=True)
                (2): ReLU()
                (3): Conv2d(128, 8, kernel_size=(1, 1), stride=(1, 1))
                (4): AdaptiveAvgPool2d(output_size=1)
                (5): Flatten(start_dim=1, end_dim=-1)
                (6): Softmax(dim=-1)
              )
              (modal_similarity_conv): Sequential(
                (0): Conv2d(256, 128, kernel_size=(1, 1), stride=(1, 1), bias=False)
                (1): ReLU()
                (2): Conv2d(128, 1, kernel_size=(1, 1), stride=(1, 1))
                (3): AdaptiveAvgPool2d(output_size=1)
              )
              (modality_dropout): ModalityDropout()
            )
          )
        )
      )
    )
    (decode_head): SegFormerHead(
      (linear_c1): MLP(
        (proj): Linear(in_features=32, out_features=256, bias=True)
      )
      (linear_c2): MLP(
        (proj): Linear(in_features=64, out_features=256, bias=True)
      )
      (linear_c3): MLP(
        (proj): Linear(in_features=160, out_features=256, bias=True)
      )
      (linear_c4): MLP(
        (proj): Linear(in_features=256, out_features=256, bias=True)
      )
      (linear_fuse): ConvModule(
        (conv): Conv2d(1024, 256, kernel_size=(1, 1), stride=(1, 1), bias=False)
        (bn): BatchNorm2d(256, eps=1e-05, momentum=0.1, affine=True, track_running_stats=True)
        (activate): ReLU(inplace=True)
      )
      (linear_pred): Conv2d(256, 20, kernel_size=(1, 1), stride=(1, 1))
      (dropout): Dropout2d(p=0.1, inplace=False)
    )
  )
)
20250220 10:45:37 - root - INFO: - ================== training config =====================
20250220 10:45:37 - root - INFO: - {'DEVICE': 'cuda', 'SAVE_DIR': '1/output', 'MODEL': {'NAME': 'MutiModalTransformer', 'BACKBONE': 'MutiModalTransformer-B0', 'PRETRAINED': '1/pretrained/mit_b0_20220624-
…
